models/orion_v0.1/model.pt (torch, 864713 bytes, 4 tensors)

classifier.0.weight f4 [512, 384]
0.08569377 0.007737493 0.037717562 0.019193882 0.042687263 0.09392838 4.6559857e-05 -0.013064302
0.118567064 -0.09884034 -0.004789275 0.03675266 0.047030203 0.005310529 0.05125414 0.032411776
0.047153972 -0.005709981 -0.020796163 0.011278339 -0.06794819 -0.043909 0.029134322 0.06908656
-0.081528395 0.0037995153 -0.016185362 0.005343889 0.06729221 -0.08737014 0.07796538 -0.063085094
0.11137376 -0.015805239 -0.05834299 0.01320369 -0.026126748 0.071375586 0.0071499688 0.0117741125
0.032820914 -0.09955026 0.054256815 0.027869415 0.032035224 -0.030759588 -0.00851212 -0.00061891816
0.0006988681 -0.07363153 -0.033324365 -0.08091415 -0.0070378403 -0.0039507374 0.053912703 0.05541366
0.02545055 -0.026839321 0.09771946 -0.07190438 0.010062267 -0.013321874 0.022319883 0.009918772
-0.0074563287 -0.0057610003 0.03206387 0.014995842 0.009255595 -0.06642809 0.07791829 0.014110528
0.12018343 -0.06134855 -0.060351193 0.040557735 -0.0551852 0.03153584 -0.034356356 0.03902162
0.008764269 -0.03518868 0.019072251 -0.040525924 0.026542593 -0.02284864 0.019324504 -0.0058832727
-0.05736442 0.07106933 -0.033981293 -0.02845267 -0.027640024 0.008993477 -0.104648344 -0.020097725
-0.024744894 -0.031582482 -0.024342747 0.014496629 -0.03817462 0.030387055 -0.015447774 -0.10794504
-0.009180453 -0.0970734 -0.073137045 -0.010710408 0.0014819887 -0.027163725 -0.0073655574 -0.018769912
0.030067027 0.010962807 -0.056936637 -0.0068772156 -0.02835633 -0.00049623265 0.03293934 -0.026079316
0.07227662 0.011070487 0.024241233 -0.08512285 -0.050619926 -0.0960806 -0.07042272 -0.040237255
0.04784905 0.011762812 0.06559622 0.0436553 0.0026938021 0.034192894 -0.058319233 -0.031330902
-0.063859716 -0.12342646 0.017644592 0.042122513 0.085024424 -0.06825787 -0.0026889616 -0.098878026
-0.054152187 0.046737406 0.02067362 0.029623546 0.057621177 -0.00756166 0.010197025 0.027826905
0.006303482 -0.014391016 0.062022578 0.03157174 0.014330929 -0.007757265 0.054991204 0.022623178
0.01349248 -0.027564306 -0.023190638 -0.023565756 0.03784 -0.09295783 0.016982004 0.013960131
0.017215962 0.022580493 -0.072989725 0.03266321 0.062228896 0.046391804 0.016371833 -0.041798163
0.0021787563 0.012090786 0.045739044 -0.017930612 0.03167609 0.007682716 0.01664002 -0.033074774
0.042952623 0.012346544 0.037259378 -0.057934787 -0.01758525 -0.0059800446 -0.051249575 -0.060445193
-0.013468156 0.070570745 0.0062787347 -0.018500121 -0.02669632 -0.0075832447 0.037468094 0.0039647906
-0.057384755 -0.08679951 0.0075044986 -0.008840722 0.017373135 -0.052689962 0.037002627 -0.023044465
-0.0131299915 0.03285105 0.013048062 0.0063522747 0.011405355 -0.074656755 0.06552034 0.050465774
-0.01184178 -0.007845589 -0.016053619 -0.03774116 0.00079858594 0.061124876 -0.05002821 -0.01021973
-0.01555343 0.037248 0.06362384 0.019863842 0.025597345 -0.06544688 -0.053728953 0.051820416
0.015890647 0.08157479 0.06449874 0.02260281 -0.012260215 -0.011035687 -0.0816246 -0.10398413
0.071567416 0.012764147 -0.06666329 -0.052355323 0.022882177 0.031166054 -0.0493364 -0.0074969996
-0.016920669 0.053945333 0.03312603 -0.0739446 -0.01052477 -0.05905732 -0.05199423 -0.07013279
00000000: 3780 af3d cc8a fd3b bb7d 1a3d 7d3c 9d3c
00000010: d7d8 2e3d 865d c03d 4449 4338 a70b 56bc
00000020: 4ad3 f23d ce6c cabd 5aef 9cbb f589 163d
00000030: bea2 403d f203 ae3b dcef 513d 36c2 043d
00000040: 8624 413d cb1a bbbb b75c aabc c8c8 383c
00000050: 6c28 8bbd ecd9 33bd 1aab ee3c 417d 8d3d
00000060: 5cf8 a6bd 4a01 793b 2a97 84bc ca1b af3b
00000070: 80d0 893d 1eef b2bd 50ac 9f3d c232 81bd
00000080: ed17 e43d fd79 81bc 0ff9 6ebd 4a54 583c
00000090: c307 d6bc 5d2d 923d 494a ea3b 35e8 403c
000000a0: 396f 063d 02e1 cbbd 653c 5e3d 664e e43c
000000b0: 5e37 033d 88fb fbbc 6b76 0bbc e53e 22ba
000000c0: 3f34 373a 21cc 96bd 217f 08bd 51b6 a5bd
000000d0: af9d e6bb 3075 81bb 91d3 5c3d 6ff9 623d
000000e0: ac7d d03c 23de dbbc 2421 c83d 9b42 93bd
000000f0: 35dc 243c fd43 5abc 30d8 b63c 5882 223c
00000100: 3854 f4bb c6c6 bcbb 6855 033d 1fb1 753c
00000110: c7a4 173c 730b 88bd a093 9f3d d82f 673c
00000120: bb22 f63d 9e48 7bbd d032 77bd de1f 263d
00000130: e009 62bd ba2b 013d 40b9 0cbd 22d5 1f3d
00000140: 0298 0f3c 0122 10bd 693d 9c3c 83fe 25bd
00000150: da6f d93c 122d bbbc 6c4e 9e3c 78c8 c0bb
00000160: f4f6 6abd cc8c 913d f82f 0bbd 9315 e9bc
00000170: 556d e2bc 6059 133c df51 d6bd fca3 a4bc
00000180: ceb5 cabc a25c 01bd 716a c7bc 4583 6d3c
00000190: fe5c 1cbd 46ee f83c a918 7dbc 4a12 ddbd
000001a0: 9c69 16bc 6bce c6bd e0c8 95bd b57a 2fbc
000001b0: 4a3f c23a 7686 debc c65a f1bb 5cc3 99bc
000001c0: 204f f63c 589d 333c 6436 69bd 445a e1bb
000001d0: 894b e8bc 9c15 02ba 67eb 063d 4aa4 d5bc
000001e0: c405 943d fd60 353c 8d95 c63c e454 aebd
000001f0: d756 4fbd e8c5 c4bd c939 90bd d2cf 24bd
00000200: 5efd 433d cfb8 403c 5057 863d e6cf 323d
00000210: 808a 303b d90d 0c3d 26e0 6ebd d554 00bd
00000220: e2c8 82bd 03c7 fcbd 648b 903c a888 2c3d
00000230: 4921 ae3d c8ca 8bbd 4a39 30bb 9080 cabd
00000240: afce 5dbd b96f 3f3d b95b a93c 14ad f23c
00000250: 2f04 6c3d cdc7 f7bb 6c11 273c 40f5 e33c
00000260: 718d ce3b 4cc8 6bbc 630b 7e3d 5e51 013d
00000270: 46cc 6a3c a830 febb 753e 613d 3e54 b93c
00000280: 900f 5d3c 8ace e1bc 4bfa bdbc f90c c1bc
00000290: 1efe 1a3d ad60 bebd d81d 8b3c 09b9 643c
000002a0: 7d08 8d3c bafa b83c a37b 95bd dcc9 053d
000002b0: bae3 7e3d 5505 3e3d 391e 863c 8d34 2bbd
000002c0: 77c9 0e3b 6f18 463c dd58 3b3d 38e3 92bc
000002d0: cabe 013d 4bbf fb3b a750 883c 6a79 07bd
000002e0: 17ef 2f3d 2949 4a3c 4a9d 183d 074d 6dbd
000002f0: f10e 90bc 40f4 c3bb 13eb 51bd 6195 77bd
00000300: 8aa9 5cbc 6587 903d d8bd cd3b 918d 97bc
00000310: 3eb2 dabc de7c f8bb 2578 193d 13eb 813b
00000320: 470c 6bbd f1c3 b1bd 4ce8 f53b add8 10bc
00000330: 1b52 8e3c 6ed1 57bd 1190 173d bfc7 bcbc
00000340: 2d1f 57bc d38e 063d 8ac7 553c be26 d03b
00000350: 87dd 3a3c a4e5 98bd 872f 863d 33b5 4e3d
00000360: 0604 42bc c98a 00bc e182 83bc 7996 1abd
00000370: 3258 513a 145e 7a3d 61ea 4cbd a870 27bc
00000380: d0d3 7ebc 5c91 183d 374d 823d 7fb9 a23c
00000390: 86b1 d13c 0409 86bd e412 5cbd a541 543d
000003a0: 1a2d 823c af10 a73d ea17 843d 8729 b93c
000003b0: 12df 48bc 07cf 34bc cc2a a7bd a2f5 d4bd
000003c0: f091 923d b620 513c c386 88bd 8972 56bd
000003d0: 6773 bb3c f44f ff3c f714 4abd 64a9 f5bb
000003e0: 379d 8abc c8f5 5c3d 29af 073d 4470 97bd
000003f0: 1670 2cbc 17e6 71bd e7f7 54bd c8a1 8fbd

classifier.0.bias f4 [512]
0.04034552 0.09387299 0.08036433 0.08290286 0.073318675 0.047240272 0.07506231 0.01786659
0.061334215 0.069620326 0.051644433 0.057986 0.100273415 0.060264487 0.0789528 0.03218021
0.09629472 0.016794553 0.044785485 0.070369884 0.068923995 0.09959756 0.021283675 0.11342122
0.054818332 0.10323143 0.046075534 0.07661526 0.06001785 0.07825244 0.032648128 0.016950361
0.025451656 0.09183854 0.034417413 0.058422383 0.06268017 0.042677935 0.07519961 0.047444217
0.10027032 0.06265536 0.08283522 0.040152993 0.06004363 0.08567617 0.02708934 0.013918741
0.068847105 0.0046090283 0.021397017 0.07983775 0.04280706 0.035213757 0.08405904 0.07720342
0.09332809 0.05570341 0.0664724 0.08170919 0.056190554 0.018267162 0.030202312 0.047316775
0.046022683 0.04637942 0.06291367 0.11192734 0.059361365 0.013301691 0.023690222 0.06118038
0.06131623 0.0639392 0.051767807 0.09376269 0.09849199 0.02985631 0.07307389 0.022765443
0.0753026 0.05044703 0.09679793 0.1124051 0.079223156 0.012124619 -0.050772384 0.05579834
0.071049355 0.07075569 0.05360497 0.0637355 0.036030676 0.09583381 0.024704669 0.04571021
0.062189743 0.08620004 0.086935215 0.111570716 0.06405923 0.058797337 0.046966605 0.082387745
0.052313108 0.04207442 0.0428112 0.06074967 0.023848262 0.08251904 0.10383297 0.07531503
0.12798995 0.06414656 0.04081707 0.074949585 0.04252178 0.05561191 0.052632444 0.05355802
0.076528445 0.062213995 0.011053998 0.098274596 0.04642004 0.006060495 0.029443858 0.09847025
0.050798696 0.031648625 0.07563286 0.09353321 0.009993381 0.06444928 0.051536962 0.09385628
0.08882247 0.058784246 0.05701685 0.077907905 0.096881196 0.11406728 0.06207896 0.028200082
0.074210815 0.076495014 0.113662824 0.07500023 0.08571908 0.02067263 0.03364685 0.07384245
0.023696242 0.06224586 0.08171625 0.073960476 0.088300034 0.07142699 0.05784903 0.09273012
0.014390637 0.03778184 0.054826345 0.03203148 0.033528198 0.029379008 0.041376214 0.049696274
0.08573083 0.06912585 0.048639875 0.045072917 0.07100032 0.07176364 0.051095285 0.0511542
0.08753868 0.07957863 0.02811282 0.028092176 0.060995303 0.110489406 0.011796233 0.025317863
0.10248331 0.044995867 0.07449037 0.01557353 0.09038316 0.07359913 0.04636532 0.04413327
0.101085395 0.03536384 0.095479995 0.027181476 0.06265969 0.09982892 0.09695161 0.07791895
0.049991984 0.086274154 0.03807863 0.053542882 0.06449369 0.0586781 0.06671712 0.014445243
0.10683871 0.09434122 0.04113058 0.027937874 0.013599439 0.054641336 0.03767382 0.0813686
0.07009017 0.072119325 0.042184185 0.075415656 0.037571006 0.08121674 0.031569935 0.027839866
0.013560959 0.06473437 0.048354648 0.09383854 0.067441925 0.07327157 0.056103 0.07442297
0.07677894 0.01615179 0.016571842 0.029644592 0.05660226 0.07894574 0.059217315 0.044814207
0.07633396 0.05787892 0.033139814 -0.0036139735 0.04239089 0.0593361 0.044072777 0.08369941
0.06786772 0.07005681 0.072737426 0.062613696 0.090790704 0.057004116 0.07948047 0.10084504
00000000: 5841 253d 7b40 c03d 0e96 a43d fac8 a93d
00000010: 1a28 963d 047f 413d 45ba 993d f45c 923c
00000020: 9639 7b3d 1a95 8e3d 1d89 533d ba82 6d3d
00000030: 265c cd3d e5d7 763d 01b2 a13d 65cf 033d
00000040: 2b36 c53d bb94 893c fc70 373d 161e 903d
00000050: 0628 8d3d cef9 cb3d 1a5b ae3c 6249 e83d
00000060: 3089 603d 006b d33d b3b9 3c3d 76e8 9c3d
00000070: 47d5 753d d142 a03d 0bba 053d 7cdb 8a3c
00000080: fe7f d03c d815 bc3d 46f9 0c3d 4f4c 6f3d
00000090: 765e 803d 0fcf 2e3d 4102 9a3d de54 423d
000000a0: 875a cd3d 7451 803d 83a5 a93d 7777 243d
000000b0: 4ff0 753d fd76 af3d 77ea dd3c 6e0b 643c
000000c0: b6ff 8c3d 5507 973b cc48 af3c f981 a33d
000000d0: 7556 2f3d 4d3c 103d 2527 ac3d d41c 9e3d
000000e0: cc22 bf3d 4229 643d af22 883d 2657 a73d
000000f0: 1128 663d 04a5 953c d76a f73c 3ccf 413d
00000100: 4882 3c3d 59f8 3d3d e2d8 803d 293a e53d
00000110: e724 733d 56ef 593c ff11 c23c 4798 7a3d
00000120: ba26 7b3d 8ef2 823d 7b0a 543d a706 c03d
00000130: 2bb6 c93d 3895 f43c c3a7 953d 987e ba3c
00000140: 4038 9a3d 8ca1 4e3d fe3d c63d a534 e63d
00000150: c03f a23d 57a6 463c b4f6 4fbd cd8c 643d
00000160: 5382 913d 5ce8 903d e390 5b3d c287 823d
00000170: e794 133d 8444 c43d 7261 ca3c a13a 3b3d
00000180: acba 7e3d a689 b03d 170b b23d 307f e43d
00000190: 7c31 833d 7ad5 703d 0e60 403d e8ba a83d
000001a0: 4546 563d 3a56 2c3d cc5a 2f3d a5d4 783d
000001b0: 6e5d c33c beff a83d 61a6 d43d c43e 9a3d
000001c0: cc0f 033e 465f 833d cd2f 273d 2b7f 993d
000001d0: 512b 2e3d 50c9 633d 1e95 573d a85f 5b3d
000001e0: f2ba 9c3d 1ad4 7e3d d41b 353c 3144 c93d
000001f0: f122 3e3d 1e97 c63b 3f34 f13c c5aa c93d
00000200: 4b12 503d fda1 013d 67e5 9a3d 578e bf3d
00000210: 47bb 233c fcfd 833d 6c18 533d b937 c03d
00000220: 8ee8 b53d c0c7 703d 808a 693d 2e8e 9f3d
00000230: a669 c63d 1b9c e93d 8246 7e3d dc03 e73c
00000240: d7fb 973d 6ba9 9c3d 0ec8 e83d b899 993d
00000250: 7c8d af3d a659 a93c 48d1 093d b63a 973d
00000260: 9f1e c23c 84f5 7e3d d95a a73d 9778 973d
00000270: a6d6 b43d 5048 923d 1bf3 6c3d 4ae9 bd3d
00000280: b5c6 6b3c 21c1 1a3d 9791 603d 7133 033d
00000290: dd54 093d 3fac f03c 1b7a 293d 528e 4b3d
000002a0: a593 af3d db91 8d3d 9b3a 473d 619e 383d
000002b0: 9e68 913d d1f8 923d 4a49 513d 1187 513d
000002c0: 7b47 b33d 1ffa a23d db4c e63c 9021 e63c
000002d0: 36d6 793d 4548 e23d fd44 413c 6867 cf3c
000002e0: c5e2 d13d 964d 383d 688e 983d 1f28 7f3c
000002f0: ce1a b93d 24bb 963d 90e9 3d3d 16c5 343d
00000300: dc05 cf3d add9 103d 048b c33d b0ab de3c
00000310: b953 803d 1b73 cc3d 918e c63d f893 9f3d
00000320: 65c4 4c3d 81b0 b03d 56f8 1b3d c84f 5b3d
00000330: 4515 843d 7358 703d fca2 883d beab 6c3c
00000340: 41ce da3d f835 c13d 8a78 283d f8dd e43c
00000350: 2ed0 5e3c 98cf 5f3d dd4f 1a3d 95a4 a63d
00000360: 6f8b 8f3d 4cb3 933d 53c9 2c3d 8673 9a3d
00000370: 0ee4 193d f654 a63d 7a4f 013d 6e10 e43c
00000380: c92e 5e3c 7493 843d 860f 463d 6c2e c03d
00000390: fe1e 8a3d 680f 963d 42cc 653d 126b 983d
000003a0: 473e 9d3d c250 843c acc1 873c 37d9 f23c
000003b0: c5d7 673d 4eae a13d db8d 723d 1a8f 373d
000003c0: fb54 9c3d 7212 6d3d 9dbd 073d 6ad8 6cbb
000003d0: 12a2 2d3d 690a 733d a885 343d 996a ab3d
000003e0: 3bfe 8a3d f279 8f3d 5cf7 943d 9c3b 803d
000003f0: 7af0 b93d 267d 693d a8c6 a23d d887 ce3d

classifier.3.weight f4 [36, 512]
-0.0041876505 0.032016102 -0.11240983 -0.089079514 0.06433581 -0.08016205 0.054377608 -0.023644902
0.10643714 -0.16798465 0.015420874 0.060236145 0.037303474 -0.06318242 0.036831114 0.10554794
-0.065184504 -0.08652119 -0.044056043 0.07723004 0.01565728 -0.009908756 -0.038288034 -0.12790056
-0.009942591 0.00439927 -0.14110333 -0.12406567 0.013071365 0.07111307 -0.06234455 0.044597313
-0.13158782 0.06419854 0.015419523 -0.16375934 0.0690251 0.060556658 0.0051051434 0.068067506
-0.110395245 -0.08659444 -0.07096016 0.08437403 -0.14749356 0.06982591 -0.014484768 -0.1306057
0.05434707 -0.08115528 -0.032301508 -0.0376072 -0.1484728 -0.05860887 -0.14647676 -0.14115244
-0.10658334 0.037746213 0.051567093 -0.024763893 0.08336389 -0.0056026373 -0.118904084 -0.066276595
0.04012355 -0.11945318 0.035752922 0.008340529 -0.021230081 0.08192393 0.062779196 -0.11422603
-0.01628182 -0.08415148 -0.062187266 0.048575163 0.034326937 -0.124246895 -0.06194466 -0.12497616
0.056509364 -1.8476363e-06 0.01595806 -0.12702155 0.019425591 -0.06868717 -0.014601555 -0.06213901
-0.108471654 -0.09443657 0.056530375 -0.08459038 0.08636777 -0.029780405 -0.012688058 -0.0006838297
0.059634786 -0.12988675 -0.033843715 -0.08554026 0.0010588397 -0.03600368 0.074060656 0.10042488
0.0006587542 0.033062324 0.093156934 0.05063504 0.041395303 -0.11119678 -0.013849313 -0.027233722
-0.097189724 0.026735816 0.11922932 -0.12899736 0.02368355 -0.06756035 -0.005693822 -0.049950767
0.021207105 -0.053249583 -0.09120828 0.05941072 -0.102407776 0.081342235 -0.08945529 0.05425622
-0.05200401 0.048937872 -0.05284535 -0.0911836 0.092318974 -0.06053184 0.07966184 -0.10308826
-0.14730267 -0.0847871 0.065806895 -0.117868975 0.006708844 -0.026505088 -0.025820198 -0.030536551
-0.0022790374 0.0003358557 -0.1474819 -0.132181 0.00617638 -0.1528607 -0.04149329 -0.11751544
0.029557625 0.046369582 0.01890416 -0.013648186 0.025459204 -0.0060038283 -0.08738363 0.04366498
0.106055066 0.0029952726 0.032385852 -0.022180421 -0.08769302 0.10148793 -0.0623071 -0.10848473
-0.03344255 -0.14695974 -0.07749288 0.053316258 -0.15861742 -0.13491237 -0.10122879 -0.13123678
0.07282434 -0.12367169 0.053750925 -0.08281733 0.04599606 -0.10165432 0.08527781 -0.050297383
0.03712221 0.07003465 -0.12878399 -0.091478705 -0.020430056 0.1163474 -0.14199714 0.06315494
-0.04292275 0.028526664 -0.019183032 0.024621138 -0.041065313 0.04864198 -0.06673856 -0.06955676
0.072077684 -0.09674073 -0.07937484 0.068801455 0.021583699 -0.120386146 0.092910424 -0.085980654
-0.046107523 -0.03322989 0.03260494 0.029438017 0.054779403 0.013004432 0.027084766 -0.046638727
0.060861245 -0.06459888 0.08305114 0.08817703 0.057296943 0.054884836 0.10409536 0.0517398
0.09376426 0.0071568107 0.00028986955 -0.028666964 0.07994184 -0.071584255 -0.14025539 -0.12912647
-0.0965081 0.105242416 -0.13752486 0.10284398 0.05289921 -0.0780168 -0.060707126 0.073403984
0.0753173 0.005073917 -0.13135935 0.05335968 -0.1013909 0.02965711 -0.12048171 -0.073750354
-0.07795935 -0.06994177 0.020442186 0.091628 -0.05439837 0.024624208 -0.004583086 -0.051072873
00000000: 8f38 89bb 5123 033d 2037 e6bd 526f b6bd
00000010: 7ec2 833d 002c a4bd 0ebb 5e3d f4b2 c1bc
00000020: b7fb d93d 2b04 2cbe d5a7 7c3c 2dba 763d
00000030: 87cb 183d c965 81bd 39dc 163d 8529 d83d
00000040: 747f 85bd 0632 b1bd 1c74 34bd c92a 9e3d
00000050: b243 803c 5658 22bc ead3 1cbd 5df8 02be
00000060: 40e6 22bc c027 903b 647d 10be 2416 febd
00000070: 4729 563c bba3 913d 005d 7fbd acab 363d
00000080: f5be 06be 867a 833d 2ba2 7c3c 87b0 27be
00000090: 085d 8d3d 420a 783d 0c49 a73b fa66 8b3d
000000a0: e716 e2bd 6d58 b1bd 8f53 91bd 4bcc ac3d
000000b0: 8d08 17be e300 8f3d 8551 6dbc 80bd 05be
000000c0: 099b 5e3d bd34 a6bd 964e 04bd 020a 1abd
000000d0: 4109 18be db0f 70bd 01fe 15be 448a 10be
000000e0: 5e48 dabd c69b 1a3d 0438 533d a6dd cabc
000000f0: b0ba aa3d 5496 b7bb fc83 f3bd 06bc 87bd
00000100: 9758 243d dea3 f4bd a871 123d b7a6 083c
00000110: b5ea adbc bcc7 a73d 6192 803d 56ef e9bd
00000120: 7461 85bc 9c57 acbd 13b8 7ebd c0f6 463d
00000130: 679a 0c3d 2875 febd afb9 7dbd 80f3 ffbd
00000140: 5d76 673d 4dfc f7b5 7aba 823c f011 02be
00000150: 6b22 9f3c dcab 8cbd 5c3b 6fbc 7985 7ebd
00000160: 6326 debd f667 c1bd 658c 673d b93d adbd
00000170: 96e1 b03d 09f6 f3bc 93e1 4fbc 0943 33ba
00000180: 9b43 743d 0801 05be b59f 0abd bb2f afbd
00000190: c4c8 8a3a 9878 13bd 1dad 973d 8fab cd3d
000001a0: 3fb0 2c3a 5c6c 073d 10c9 be3d b066 4f3d
000001b0: 1f8e 293d 23bb e3bd 3be8 62bc 4119 dfbc
000001c0: 680b c7bd 1205 db3c 802e f43d e217 04be
000001d0: 0104 c23c 155d 8abd 3e93 babb 2d99 4cbd
000001e0: 86ba ad3c 3c1c 5abd 68cb babd a858 733d
000001f0: 2bbb d1bd c296 a63d 5634 b7bd c53b 5e3d
00000200: 2802 55bd 1473 483d 5e74 58bd 78be babd
00000210: bb11 bd3d 3cf0 77bd bf25 a33d f01f d3bd
00000220: 83d6 16be dca4 adbd c4c5 863d 4a65 f1bd
00000230: ddd5 db3b 3321 d9bc e184 d3bc ca27 fabc
00000240: e75b 15bb ca15 b039 7f05 17be 755a 07be
00000250: 3b63 ca3b 8487 1cbe def4 29bd efab f0bd
00000260: d522 f23c 08ee 3d3d e6dc 9a3c a49c 5fbc
00000270: d28f d03c c3bb c4bb 30f6 b2bd 0dda 323d
00000280: 6633 d93d 564c 443b 07a7 043d b7b3 b5bc
00000290: 6698 b3bd e7d8 cf3d bb35 7fbd 3e2d debd
000002a0: 0efb 08bd 9d7c 16be 96b4 9ebd 2662 5a3d
000002b0: 9b6c 22be 7826 0abe 0a51 cfbd ef62 06be
000002c0: ed24 953d 9547 fdbd ee29 5c3d 229c a9bd
000002d0: 5d66 3c3d 2430 d0bd 22a6 ae3d a104 4ebd
000002e0: 750d 183d 546e 8f3d f3df 03be 3059 bbbd
000002f0: ef5c a7bc 8c47 ee3d b367 11be 6157 813d
00000300: c4cf 2fbd c0b0 e93c bc25 9dbc 45b2 c93c
00000310: 1a34 28bd d03c 473d 3aae 88bd c673 8ebd
00000320: 779d 933d 0120 c6bd 478f a2bd c7e7 8c3d
00000330: 4cd0 b03c 038d f6bd d247 be3d a016 b0bd
00000340: 3edb 3cbd 111c 08bd c28c 053d ff27 f13c
00000350: 5e60 603d 8b10 553c dfe0 dd3c 4008 3fbd
00000360: a449 793d 6b4c 84bd b716 aa3d 2996 b43d
00000370: 33b0 6a3d ecce 603d f32f d53d 1ded 533d
00000380: 7a07 c03d ae83 ea3b a2f9 9739 fbd6 eabc
00000390: 8cb8 a33d c49a 92bd 1c9f 0fbe bb39 04be
000003a0: 0aa6 c5bd 5689 d73d 51d3 0cbe dd9f d23d
000003b0: d8ac 583d 46c7 9fbd 09a8 78bd d454 963d
000003c0: f53f 9a3d 1a43 a63b 1183 06be ae8f 5a3d
000003d0: 08a6 cfbd 78f3 f23c 1dbf f6bd 6d0a 97bd
000003e0: 27a9 9fbd a13d 8fbd 5f76 a73c 76a7 bb3d
000003f0: d3d0 5ebd b5b8 c93c b62d 96bb ca31 51bd

classifier.3.bias f4 [36]
-0.03794297 -0.058897812 0.02125736 0.035375196 -0.017278928 0.05375907 0.056662533 0.026083272
0.0075110476 0.037685383 -0.0038824058 -0.031215746 0.016642096 0.020847706 0.04191682 -0.01914623
0.005156127 0.027896626 -0.05146595 0.0372633 -0.013399548 -0.012456741 -0.013445884 -0.0025224015
-0.0578592 0.028795034 -0.048865315 -0.050496545 -0.03535074 0.0044176537 -0.015728917 -0.011162594
-0.027589804 0.009427369 -0.016841559 -0.054649875
00000000: 166a 1bbd d53e 71bd ea23 ae3c 95e5 103d
00000010: 8a8c 8dbc 7832 5c3d f916 683d 96ac d53c
00000020: 3c1f f63b fd5b 1a3d f66f 7ebb 2ab8 ffbc
00000030: 0155 883c cfc8 aa3c f9b0 2b3d 8ed8 9cbc
00000040: baf4 a83b 7787 e43c f6cd 52bd 67a1 183d
00000050: c789 5bbc 5c17 4cbc 204c 5cbc e04e 25bb
00000060: c5fd 6cbd 90e3 eb3c ff26 48bd 77d5 4ebd
00000070: f0cb 10bd f7c1 903b eed9 80bc 50e3 36bc
00000080: 0304 e2bc 4075 1a3c 4ff7 89bc 8cd8 5fbd
